Deep-learning-Azure/LeNet_CPU.pt (torch, 251143 bytes, 10 tensors)

network.0.weight f4 [6, 3, 5, 5]
000000 cd d3 ec bb 02 bc bc bd 0a 19 ab bd 1c df ec 3c
       -0.007227397 -0.09215547 -0.08354385 0.02891498
000010 d1 4c 1c be a3 17 53 3d e9 f6 b9 ba af 38 7e 3d
       -0.15263678 0.051536214 -0.0014187965 0.062065776
000020 78 3d 96 3c ae 74 1f bd 83 e1 e0 3d 8e 3e a7 3d
       0.018339857 -0.038929634 0.10980513 0.08166228
000030 72 ba c7 3d 56 8d f0 bc 6f bf d5 bc 89 51 9d 3d
       0.097523585 -0.02936427 -0.02609226 0.07681567
000040 cf 42 0d 3e 5c 39 a9 3d 8e f9 25 3e 1d 9b 99 3d
       0.13795017 0.082628936 0.16208479 0.07500289
000050 0e df 7c 3d a1 b7 9e 3d 62 95 d7 3d 6c 11 ae 3d
       0.06173616 0.07749868 0.105265394 0.08499417
000060 f6 4b 6a 3d 12 ca 79 bd 34 0b 23 3d 10 85 ec 3b
       0.05720135 -0.060983725 0.039805606 0.0072180107
000070 5a af 0b be 22 bf 78 bc 1b 6d 00 bd 3d 6f dd 3d
       -0.1364111 -0.015182288 -0.03135405 0.10812233
000080 51 22 34 3d 12 df 2c be 51 17 6b be 59 d0 4f bd
       0.04397804 -0.1688197 -0.22958113 -0.050735805
000090 cc d6 f9 3d 90 27 13 bd 95 ea 8d bd 64 c8 63 be
       0.121991724 -0.0359264 -0.069295086 -0.22244412
0000a0 82 5c a0 3d ac 9a 69 bc d3 97 28 3d 9a 89 e1 bd
       0.078301445 -0.014258068 0.041160416 -0.110125735
0000b0 9a ef 54 be 36 41 24 b8 13 3e 6c bd 1c 53 9c bc
       -0.20794526 -3.916138e-05 -0.057676386 -0.019082598
0000c0 43 7c d7 bd 0e 4b 05 be b9 8c 07 bd ca 80 7c 3d
       -0.10521748 -0.13016912 -0.033093188 0.06164626
0000d0 71 42 f2 3d 12 69 cf 3c 59 d8 b0 3d 62 ad 14 3e
       0.11829079 0.025318656 0.08635015 0.14519265
0000e0 a6 b2 07 3e 6b ba dc 3b fb 1f 8f 3d c0 ac 13 bd
       0.13251743 0.00673609 0.06988522 -0.03605342
0000f0 77 5b 11 3d cd ae 59 3e 29 a1 13 3e fc 77 59 3d
       0.03548762 0.21258087 0.14416946 0.05309294
000100 3e 55 2d be 34 2b f7 3c 65 5d fc 3d ac 20 55 3d
       -0.16927049 0.030171968 0.12322501 0.05203311
000110 c9 02 f8 bd 01 a3 20 be 42 90 67 3d 40 eb 50 3d
       -0.12109906 -0.15687181 0.05653406 0.051005602
000120 12 51 90 3d 54 2e 84 3b e8 ae ef bb 7b 62 f0 3b
       0.07046713 0.004033843 -0.0073145516 0.0073359585
000130 19 d2 21 3d ac c2 33 3d e3 07 ff bd c2 cf 93 bb
       0.039507005 0.043886825 -0.12452676 -0.0045108506
000140 9f 02 09 be a2 28 14 be c8 91 7c bd f6 e0 49 bd
       -0.13379906 -0.14468625 -0.061662465 -0.049286805
000150 cf 79 c0 3c c0 60 24 be ba 39 60 be d5 ab 60 bd
       0.023495583 -0.16052532 -0.21897021 -0.05485137
000160 84 3c ad bd c5 c3 ca 3c 3f 6e 7a bd 3b 12 57 be
       -0.08458808 0.024751553 -0.061140295 -0.21003048
000170 a6 8c 05 be a0 24 5c bd 2e 52 ef bd 32 de 25 be
       -0.13041934 -0.053745866 -0.116855964 -0.16198042
000180 61 3a f6 bd 9d 42 1c be 1b 65 31 be 36 61 16 be
       -0.12022854 -0.15259786 -0.17323725 -0.1468552
000190 1d a3 c0 3d a3 c2 b5 bb 3c d1 94 3d be 2d 49 3d
       0.094061114 -0.005546884 0.07266471 0.04911589
0001a0 c1 0b d8 bd 4f d8 b7 bd 85 71 e9 3d a5 56 46 3c
       -0.10549117 -0.089768045 0.11398605 0.012105619
0001b0 5a be f0 3d 22 3f 2f 3d 71 16 04 3d 5c 11 8f 3d
       0.11755057 0.042784818 0.032247964 0.06985733
0001c0 9c d2 af 3d 24 3b a6 bc e9 83 94 3d 4c 0a ae 3d
       0.085850924 -0.020291872 0.07251722 0.08498058
0001d0 a7 33 85 3d 80 a1 23 3d ef e0 df bc 8b 8f 0b 3b
       0.065039925 0.03994894 -0.027328936 0.0021295275
0001e0 40 bb b9 bd 65 1b 43 bd ff 92 44 3d 2e 10 99 bd
       -0.09068918 -0.047633547 0.04799175 -0.07473789
0001f0 ee 58 8d 3d 9d f7 1e bd 12 7a 27 bd 3d 90 58 3d
       0.069017276 -0.03881036 -0.0408879 0.05287193
000200 2b 24 08 3e 47 a0 ed 3d 9a a2 0f bd 5f 3e a3 3d
       0.13295047 0.11602836 -0.03506718 0.07970881
000210 a5 1b 29 3e 16 11 38 3e dc 26 09 3e d6 53 dc 3d
       0.16514452 0.17975268 0.1339373 0.10758178
000220 8d 40 e4 3d 99 04 a2 3d 67 30 41 3d bb 2c cf 3c
       0.111451246 0.07911033 0.0471653 0.025289884
000230 a5 ea 55 bc 06 6a 01 3d 56 1a e5 bc 13 69 25 3e
       -0.013056432 0.031595252 -0.02796666 0.16153364
000240 17 60 2f 3e e7 28 1a bc 2d aa ed 3c 5c 41 e1 3c
       0.17126499 -0.009409166 0.02901181 0.027496986
000250 ed e7 e7 3d cd 08 fd 3d ac 7d 3f bc 4e 50 14 3e
       0.11323533 0.12355194 -0.011687677 0.14483759
000260 97 fb 3e 3c c0 35 a4 ba e6 5f d7 bd 7b 7a 3c be
       0.011656663 -0.0012528226 -0.10516338 -0.18406098
000270 c0 ca 36 be cf 8f 28 be 8f ed 2f bd a7 0a 00 be
       -0.1785078 -0.16461109 -0.042951163 -0.12504064
000280 c1 71 5d be 48 00 a2 bd 1b 63 8b bd b2 c8 73 bd
       -0.21625425 -0.0791021 -0.06806012 -0.05951757
000290 5d b0 1f be f2 d9 00 3d 52 5c 0e bd ce cc 14 3d
       -0.15594621 0.03145785 -0.034756012 0.03632813
0002a0 bd 26 a0 bd 2b 21 76 bd 21 db b9 3d 59 cd 0f 3e
       -0.07819889 -0.060090225 0.09074999 0.14043178
0002b0 4a 79 34 3e 2f b4 27 3e de 25 4f 3e 9a 53 29 3e
       0.17624393 0.16377328 0.20229289 0.16535798
0002c0 ad 4f 1a 3e 48 13 9b 3d e7 b7 cc bc 11 ae 14 3e
       0.15069456 0.07572037 -0.024990035 0.14519526
0002d0 f9 78 aa bd 54 d7 6b bd f2 b3 17 be 8a 92 a8 bd
       -0.08323855 -0.0575784 -0.14814737 -0.08231075
0002e0 54 d9 c5 bd 22 27 88 3c db 02 2f be cd 98 14 be
       -0.09660593 0.016620222 -0.17090933 -0.14511414
0002f0 b6 b3 bb bd ef 1e ee bd 7f c2 24 3d 04 37 2e bd
       -0.091651365 -0.11626994 0.04022455 -0.042532936
000300 b7 25 1c b9 0e 9d c1 3b 58 3d 52 3d 5e 67 45 bd
       -0.00014891369 0.005908615 0.051328033 -0.04819428
000310 e0 96 64 3d ab 7d 0f 3e b5 33 1c 3e 0c 12 c6 bd
       0.055807948 0.14012782 0.152541 -0.09671411
000320 e6 23 b8 3d 90 f8 7b 3a 61 1c 41 3e 2d 98 0a 3d
       0.08991222 0.0009611929 0.18858482 0.033836532
000330 7a cb 15 3e 1b 83 13 bb 7c 16 12 b9 54 be aa 3b
       0.14628401 -0.0022508565 -0.00013932021 0.005210677
000340 15 a4 8b 3c 41 cd a9 3d 13 79 91 bc 27 f1 ad 3c
       0.017046014 0.08291102 -0.017757928 0.021233154
000350 7c 94 c3 bd e4 88 5c 3d 34 35 c1 3d 0d aa e0 3d
       -0.095498055 0.053841487 0.09433976 0.109699346
000360 77 b7 d8 3d 10 18 80 bb 06 4f 7d bc 31 bf b4 3d
       0.10581868 -0.0039091185 -0.015460735 0.08825529
000370 60 99 94 bd 49 3f a8 3d aa da 2f bd 6d a7 64 bd
       -0.072558165 0.08215196 -0.042933144 -0.055823732
000380 49 ff b1 3c 0c 23 eb bd 98 8e 31 bd 56 b0 26 3e
       0.021728175 -0.11481294 -0.04334888 0.16278204
000390 2a 91 ab 3d 60 58 37 bd af 7b ca bd da b3 1e be
       0.08377297 -0.044762015 -0.09886872 -0.15498295
0003a0 e1 9f 78 3e ff f4 64 3d f6 a6 28 be 48 3d b0 bd
       0.24279739 0.05589771 -0.1646994 -0.086054385
0003b0 a7 55 1a be 2c d7 74 3e 11 52 3c 3e 66 09 53 be
       -0.15071736 0.23910207 0.18390681 -0.20609054
0003c0 80 84 13 be e5 06 50 bd 86 2a 32 3e 76 46 db 3d
       -0.14406013 -0.050787825 0.17399034 0.10706799
0003d0 cb cd ef bd 3f ca 9a bc 1f a8 f5 bd d9 d4 48 3c
       -0.11709174 -0.018895267 -0.11994957 0.012257778
0003e0 03 98 10 3d 82 03 e7 3d 2f 1b 72 3d 2b 9a 6f bd
       0.03530122 0.11279966 0.059107956 -0.058496635
0003f0 97 f4 bd 3d 47 bd 4e 3d d9 9b 1a be 02 c9 0f be
       0.092751674 0.050473478 -0.15098514 -0.14041522

network.0.bias f4 [6]
000000 91 e9 4c 3e cb 03 3b 3e 4c 3b a3 3d 0d 27 18 3d
       0.20010974 0.18263166 0.07970294 0.037146617
000010 7f 73 8c bd db 23 25 3e
       -0.06857967 0.16126959

network.3.weight f4 [16, 6, 5, 5]
000000 d2 68 7d bc 56 35 4c bd 8e b1 f5 3c 37 33 13 bd
       -0.015466886 -0.049855553 0.029991891 -0.035937514
000010 6b 99 6c 3d 4c 30 cb bd c2 aa 2d 3d f1 36 e8 3c
       0.0577635 -0.09921321 0.042399175 0.02834651
000020 a8 5d dd bc 45 b8 ec 3c 1c 8b 0c be aa 04 03 bd
       -0.027022198 0.02889646 -0.13724941 -0.03198687
000030 f5 f0 6b bc bd b4 a5 bd ea f6 80 bd 1d cc df bd
       -0.01440071 -0.08091114 -0.06297095 -0.109276034
000040 bd 61 58 3d ca 89 f2 3c 6c 5c 7b 3c a0 9e 93 bc
       0.052827585 0.029606719 0.015341859 -0.018019974
000050 f3 0b d5 bd e2 c2 28 3c cb a9 c9 3c 32 4d 39 bd
       -0.1040267 0.01030037 0.024617096 -0.045239635
000060 4a 5a 05 bc 5f 7c ae bd 30 7a 09 bc b5 6d 26 3d
       -0.008139202 -0.08519816 -0.008390948 0.04063197
000070 97 8b b1 3d 35 de a5 bc 3b da ae bd 20 20 4c 3d
       0.08669203 -0.020247558 -0.08537718 0.049835324
000080 25 78 fb 3c 07 4f 46 3d 48 a6 53 3d 4a d8 a0 bd
       0.030696938 0.04841521 0.05167225 -0.07853754
000090 ad 20 a5 3c 00 c3 ab bd ee 57 34 bc 43 70 d3 3c
       0.020157183 -0.08386803 -0.011007292 0.025810366
0000a0 62 66 75 bd 01 d2 be bd 02 33 94 bd 8f ad b2 3c
       -0.059912093 -0.09317399 -0.072362915 0.021811275
0000b0 ce 87 91 bd 7a c7 73 be 7c 9b 3d be b4 44 e1 bd
       -0.07105981 -0.23806563 -0.18516344 -0.10999432
0000c0 62 37 d6 bd 3c a6 1e be 04 ba 53 bd 2b ff 49 bd
       -0.10459782 -0.15493101 -0.05169107 -0.049315613
0000d0 fb 9c 5c 3d c8 e1 65 bc 3a b0 1b bd ec 8d 12 3c
       0.053860646 -0.014030881 -0.03800986 0.00894497
0000e0 1c 65 a7 bd 20 3c 88 3c 98 f4 6c 3d 66 ed 41 3b
       -0.08173582 0.016630232 0.05785045 0.0029590963
0000f0 f6 3c 41 bd e4 da 98 bd 7d 7c 87 bd d6 f3 a9 3c
       -0.047177278 -0.07463625 -0.06615541 0.020746153
000100 7f 4b 51 bd 80 bf fc bd e8 1c 09 bd 59 b5 bb bc
       -0.05109739 -0.12341213 -0.033474833 -0.022913622
000110 b8 e0 00 bc 8d 73 29 bd 52 42 82 bc 6a ee c0 bc
       -0.007866077 -0.041369963 -0.015900765 -0.023551185
000120 a7 9c 8f bc 5b 12 d8 3a 65 c0 41 3d 8f 5a 7d bd
       -0.017530752 0.0016484963 0.047302622 -0.06185394
000130 4c 84 ca 3c ae 6f 80 3b 57 64 af bd 1e a6 c1 bd
       0.024721287 0.0039195633 -0.0856406 -0.094555125
000140 8e ed 0a 3d 6a b5 7d 3d ac d9 dd bc 40 4f 1d 3d
       0.033917956 0.061940588 -0.027081333 0.038405657
000150 85 f2 2b 3d 69 31 dc bc 2d f0 ef 3c 4e e6 09 bb
       0.04197933 -0.02687903 0.02928933 -0.0021041813
000160 a6 89 18 bc 4b ce 58 3d 68 08 0f 3b e2 3b f6 3d
       -0.009310162 0.05293111 0.002182508 0.120231405
000170 79 32 22 bc 5f 7a 13 3e 79 17 85 3c 09 00 ab 3d
       -0.009899729 0.1440215 0.016246544 0.08349616
000180 b2 ac 15 3e 79 7b 6b 3d 2b 81 c4 3d fe 32 94 3d
       0.1461666 0.0574908 0.09594949 0.072362885
000190 4a 90 0a 3d 51 55 d1 bc 25 27 6a bd ca e8 c2 bc
       0.03382901 -0.025553377 -0.057166237 -0.023792643
0001a0 84 39 e7 3c df 22 3f bd 91 24 58 bd 07 9d c5 bd
       0.028225668 -0.046664115 -0.052769247 -0.09649091
0001b0 1a 43 54 3d b1 fe a1 3d 29 0a 9e bd 73 4f bc bd
       0.051821806 0.07909907 -0.07716782 -0.09194841
0001c0 64 8a d5 3c 64 1a 07 3d ef 3e f6 3d cc 61 38 bd
       0.026066966 0.032984152 0.120237224 -0.04501514
0001d0 96 53 a7 bd b1 bb 2b bd 40 8e 37 ba 4d 2f da 3c
       -0.081702396 -0.041927043 -0.0007002093 0.026633883
0001e0 96 9c f0 b9 63 5d bc bc cc ea 68 3b d2 e8 21 bd
       -0.00045893033 -0.022993749 0.003554034 -0.039528675
0001f0 d6 46 f0 3d 32 fd bc 3d af 29 cc 3d 49 ab 4c 3e
       0.11732261 0.09227981 0.09968888 0.19987215
000200 df 6e 4f 3d 3d 03 6d bd b7 79 17 3d 18 bc 28 3e
       0.050642844 -0.057864416 0.03698131 0.16478002
000210 b4 e1 a0 3d f3 14 98 3c 17 b7 96 bd 80 56 e9 3d
       0.078555495 0.018564677 -0.0735914 0.11393452
000220 44 e3 dc 3d 9d 9b c8 bc 38 79 79 bd 32 2d ba 3d
       0.10785535 -0.024488265 -0.06090662 0.090906516
000230 50 13 7d 3d 50 15 3d bc 29 29 f4 bc e8 6a cd 3d
       0.061785996 -0.011540726 -0.029804783 0.100301564
000240 62 6e 58 3d c5 e7 20 3d db 72 03 3e 72 17 bb 3d
       0.052839644 0.039283533 0.12836783 0.09135331
000250 30 a3 ab 3c 79 a6 27 bd e6 08 45 3d c2 05 9f 3d
       0.020951837 -0.040930245 0.04810419 0.0776477
000260 9f fd c3 bd 19 86 1c bd 81 14 ae 3c 53 e4 d7 3c
       -0.09569859 -0.038213823 0.021250011 0.02635399
000270 ef 2c 81 bd 74 3d 4e bc 9a 1d 61 3d 89 b2 cb 3d
       -0.063073985 -0.012587894 0.05495987 0.09946162
000280 7b ee a0 3c 28 ea 1e bd 12 0b d5 3d 17 b3 9f 3d
       0.019644966 -0.038797528 0.10402502 0.077978306
000290 7b 2f bc 3b ae 1d 7a bd c2 a6 57 3d ca 91 87 3d
       0.005742965 -0.06106346 0.052649267 0.06619604
0002a0 83 35 89 3d 84 01 a5 3d ac e9 be 3c e1 1b d3 3d
       0.0669966 0.0805693 0.023304783 0.10308052
0002b0 ec a8 6d bc ec 20 37 3d 7d d4 99 3d d0 c3 ce bc
       -0.014505606 0.04470913 0.07511232 -0.025239855
0002c0 a2 90 1c 3c b5 ca 38 bd 62 eb 3d bd f6 2e 44 bc
       0.0095559675 -0.04511519 -0.046367057 -0.011974087
0002d0 3a 8f c2 3c 2e 96 3e bd b2 f6 bc bd 7a 22 1f bd
       0.023749936 -0.04652994 -0.09226741 -0.03885124
0002e0 67 aa 65 3c e5 92 3e bd fb e5 b5 3c e5 0a 0e 3d
       0.014017678 -0.04652681 0.02220439 0.03467836
0002f0 c0 e8 51 3d b8 c5 20 3d 0c 91 12 bd d0 92 d5 3d
       0.05124736 0.03925106 -0.03578286 0.10428393
000300 54 da 52 bd 2e b8 0d bd 79 be 62 bd 56 11 9c 3d
       -0.051477745 -0.034599476 -0.05535743 0.07620494
000310 04 55 24 bc d6 f9 af bb 76 ec e1 bc f9 98 f9 bc
       -0.010030035 -0.005370359 -0.027578574 -0.03046845
000320 32 75 a4 bd 28 5b 0b 3c c1 0e d3 bb f3 b0 14 bc
       -0.08030166 0.00850562 -0.006440968 -0.009075391
000330 52 00 3b be b0 7e dc 3d 25 4f 4a 3d 58 8d 93 bd
       -0.18261841 0.10766351 0.049391884 -0.072046936
000340 81 ea e6 bd c7 8e 44 be 71 b8 0f 3e bf cb ee bc
       -0.11275197 -0.1919509 0.14035203 -0.029149888
000350 3c 8f 60 be 00 09 6a be 51 c3 84 bc a6 3e 03 3a
       -0.2192964 -0.22854996 -0.016206415 0.0005006589
000360 9e 39 41 be f0 1e 16 be b4 05 87 bd 03 f6 06 3d
       -0.18869635 -0.14660239 -0.06592885 0.03294946
000370 46 f3 85 bd a0 a7 ff bd 53 a5 fb 3c 95 3d 03 bc
       -0.06540541 -0.12483144 0.030718481 -0.008010288
000380 e7 49 4a 3d db 01 a4 3d 40 38 0f bd 10 d9 a2 bd
       0.049386885 0.080081664 -0.034965754 -0.07951558
000390 65 44 5a 3d 8a d4 f2 bc 29 b0 2b 3c 18 2d ca bc
       0.053287882 -0.029642362 0.010479012 -0.024679706
0003a0 1c 10 d5 3c dc e3 86 bb 52 3b 0d bc 59 8e d0 bd
       0.026008658 -0.0041165184 -0.0086201 -0.10183401
0003b0 ba c9 38 bb f9 b3 5c 3d 14 8b 9c bd ef 7e a7 bd
       -0.002819641 0.053882573 -0.076437145 -0.081785075
0003c0 11 d3 6c 3b c0 28 91 3d 56 14 1a 3d d4 26 30 bc
       0.0036136548 0.070878506 0.03761705 -0.010751445
0003d0 3f 71 35 3d 46 b1 8b bc e2 e5 06 3d 5e e3 8c bc
       0.044297453 -0.017052304 0.032934077 -0.01719826
0003e0 a4 d5 80 3c c4 1a 95 3d 2a 1b 1c 3d a3 e9 c7 3d
       0.015726872 0.07280496 0.038111843 0.097613595
0003f0 7f e3 1c 3e 1e ca a7 bc ca 0c 22 bc 67 62 49 bc
       0.15321158 -0.02048212 -0.009890744 -0.012291527

network.3.bias f4 [16]
000000 6f 5d 22 3e bc 3f 5b 3b 1b 80 2a 3e dd 49 3f 3e
       0.15855955 0.0033454737 0.16650431 0.1868052
000010 1c e3 46 bc 5d c7 5f 3e 2d be 91 bd 18 74 8e be
       -0.012139108 0.21853395 -0.07116351 -0.27822948
000020 3a 70 5a be ec ad 91 a8 3b 9f 21 be 75 f2 25 be
       -0.21331874 -1.617366e-14 -0.15783398 -0.16205771
000030 55 3f 6d 3e b9 48 3b 3e 98 bd 1e be 3e 0a 49 be
       0.2316869 0.1828946 -0.15502012 -0.19632813

network.7.weight f4 [120, 400]
000000 0d 95 5c 83 93 36 01 80 94 eb 07 80 2c 21 05 00
       -6.482329e-37 -1.11413e-40 -7.27358e-40 4.71077e-40
000010 e7 0a 07 00 24 dc 03 00 a6 75 01 80 63 41 1e 00
       6.4676e-40 3.54478e-40 -1.3404e-40 2.778521e-39
000020 49 40 1f 00 a4 15 03 00 c1 a4 03 80 23 e2 09 80
       2.869962e-39 2.8327e-40 -3.34609e-40 -9.07642e-40
000030 02 39 b3 03 bf 06 33 00 e1 2b 08 00 85 e6 09 80
       1.0533763e-36 4.68603e-39 7.50425e-40 -9.09214e-40
000040 b3 06 03 80 85 49 66 82 1f 41 06 80 bc e6 03 80
       -2.7791e-40 -1.691883e-37 -5.74374e-40 -3.58278e-40
000050 31 3e 02 00 5c ce 02 00 86 3c 03 80 8c f8 03 80
       2.05981e-40 2.57699e-40 -2.97218e-40 -3.64668e-40
000060 48 ca 02 00 07 13 e6 8d c7 28 5c 8b f1 7c 35 87
       2.56236e-40 -1.4179425e-30 -4.2401136e-32 -1.3653644e-34
000070 cc 88 9a 86 80 01 6d 86 a7 18 3f 95 b0 1f 47 95
       -5.8129367e-35 -4.4575848e-35 -3.859159e-26 -4.0212727e-26
000080 ab 6e fa 0a c6 69 ca 0a eb ca f1 09 c1 93 b2 9d
       2.4115753e-32 1.949168e-32 5.8209463e-33 -4.726898e-21
000090 ca 35 e2 96 33 c0 f3 12 6c ac d1 8d f1 24 68 8c
       -3.6546215e-25 1.5382837e-27 -1.29221285e-30 -1.7883747e-31
0000a0 52 0b 62 99 e5 fe aa 99 8c 64 0e 98 e1 50 9a 11
       -1.1686212e-23 -1.7680539e-23 -1.8403833e-24 2.4346761e-28
0000b0 bd 64 aa 0c e0 2a aa 98 3c 29 d0 9b d1 7a a0 9c
       2.6253277e-31 -4.3987263e-24 -3.443736e-22 -1.0619659e-21
0000c0 e2 3d b0 98 81 2d 58 12 a7 65 06 00 b2 8a 0b 80
       -4.555742e-24 6.821367e-28 5.87479e-40 -1.059945e-39
0000d0 64 1c 05 80 e8 f8 02 80 44 1a 02 00 b3 c3 08 00
       -4.69362e-40 -2.72962e-40 1.93093e-40 8.04888e-40
0000e0 2d c2 02 00 7e 21 08 00 18 62 02 80 b5 8c 0a 80
       2.53328e-40 7.46699e-40 -2.1886e-40 -9.68831e-40
0000f0 a8 4d 03 80 6a c2 08 80 df 42 0a 00 17 be 04 80
       -3.03364e-40 -8.04427e-40 9.42344e-40 -4.35533e-40
000100 82 91 a8 80 cc 0e 01 00 9d 63 0c 80 3d 1b 0e 80
       -1.5480562e-38 9.7144e-41 -1.13776e-39 -1.295468e-39
000110 ed 30 01 00 e1 ed 07 80 55 4e 0d 00 86 30 03 00
       1.09387e-40 -7.28183e-40 1.221962e-39 2.92913e-40
000120 50 eb 0d 80 fb 71 01 00 41 ee 01 00 1b 99 07 ae
       -1.278276e-39 1.32724e-40 1.77305e-40 -3.083143e-11
000130 20 00 98 ad 38 8a 24 ad aa 66 03 ad be f6 19 ad
       -1.7280455e-11 -9.353011e-12 -7.469284e-12 -8.751831e-12
000140 35 4e 5f a9 28 b4 eb a9 fa 8b 66 a9 90 2b fa a9
       -4.958378e-14 -1.04673486e-13 -5.119167e-14 -1.1109787e-13
000150 78 d6 c2 aa d4 69 a1 a5 39 ad d9 a7 dc 1d 83 a6
       -3.461014e-13 -2.800076e-16 -6.0417407e-15 -9.098044e-16
000160 95 54 f1 a5 7b 57 03 a8 13 03 17 23 1d 38 cd a5
       -4.186415e-16 -7.29093e-15 8.186377e-18 -3.5599855e-16
000170 63 43 30 a5 ae 67 28 a4 ca 3c 2b a7 e4 23 14 28
       -1.5288398e-16 -3.6517013e-17 -2.376397e-15 8.223433e-15
000180 31 30 9d a5 49 42 1d a5 ed 3c cc a4 18 c9 f5 a6
       -2.7267814e-16 -1.3640038e-16 -8.857411e-17 -1.7054797e-15
000190 ca c3 00 00 79 06 01 80 ac 6a 04 00 fb 35 02 80
       7.0236e-41 -9.4157e-41 4.05609e-40 -2.03036e-40
0001a0 3a 51 07 80 1d 59 00 80 01 ee 02 80 31 fa 01 80
       -6.71987e-40 -3.1968e-41 -2.69051e-40 -1.81587e-40
0001b0 ae 26 08 80 3d 9f 02 00 af bb 05 80 ec b4 0c 00
       -7.4856e-40 2.40795e-40 -5.26506e-40 1.166928e-39
0001c0 f6 5d 04 80 fa 37 01 80 06 98 03 80 3a 19 00 80
       -4.01049e-40 -1.11916e-40 -3.30042e-40 -9.05e-42
0001d0 14 a0 01 00 b4 d6 03 00 35 ff 0a 80 a4 9e 00 00
       1.49261e-40 3.52527e-40 -1.009906e-39 5.691e-41
0001e0 17 0c 0d 80 cf 99 01 80 ec 3c 09 00 bc a8 05 00
       -1.198198e-39 -1.47012e-40 8.48374e-40 5.19708e-40
0001f0 51 e9 01 00 1f a7 5a aa 01 13 94 a9 65 85 e7 a8
       1.75534e-40 -1.9420271e-13 -6.575817e-14 -2.5704003e-14
000200 57 6a d0 a8 c4 07 0e a9 4b 01 98 a5 52 e0 25 a5
       -2.3138756e-14 -3.153707e-14 -2.6368673e-16 -1.4387471e-16
000210 31 57 25 a4 99 2c ae a4 2b f6 6b a5 09 33 b5 22
       -3.5852526e-17 -7.553602e-17 -2.0466406e-16 4.9114184e-18
000220 e0 b9 4d a0 82 80 a2 9e 54 80 78 9f 57 dc 0e a2
       -1.7425676e-19 -1.7205567e-20 -5.2622193e-20 -1.9361236e-18
000230 4d 17 e3 20 87 31 5a 9e c6 02 92 9d b5 07 f5 9c
       3.8470715e-19 -1.1551066e-20 -3.8648746e-21 -1.6214732e-21
000240 f4 35 85 9f a8 40 9a 21 ec ee 7d 9f 3e db 36 9e
       -5.641695e-20 1.045256e-18 -5.3772465e-20 -9.680338e-21
000250 40 6e 83 9d 5b 8c b6 9e 2d fe 67 97 05 a4 2c 14
       -3.4789407e-21 -1.932805e-20 -7.496094e-25 8.716128e-27
000260 4a b5 49 0f 9a 30 3d 11 ba 1a 42 8e 2f 68 72 0a
       9.94498e-30 1.4924448e-28 -2.3925215e-30 1.1671471e-32
000270 32 a8 e1 04 66 f6 4a 03 5e aa 1e 86 44 88 b3 86
       5.305171e-36 5.9645316e-37 -2.9841663e-35 -6.753254e-35
000280 92 ac 4b 00 69 9c 0c 80 9d c9 06 00 7a 07 08 80
       6.949569e-39 -1.158135e-39 6.23338e-40 -7.37366e-40
000290 75 0a 04 00 ab 95 1c 01 a6 60 03 00 f1 75 06 80
       3.71093e-40 2.8760056e-38 3.10177e-40 -5.93322e-40
0002a0 18 50 03 80 73 46 05 80 33 5c 13 00 38 c5 01 00
       -3.04239e-40 -4.8445e-40 1.777949e-39 1.62584e-40
0002b0 29 1a 05 80 5f 28 00 00 ed ad 0a 80 fe 29 c5 11
       -4.68562e-40 1.4482e-41 -9.80748e-40 3.1107e-28
0002c0 6e 3b 9d 11 4e 22 ba 08 d9 4b 2e 0a 2e c5 95 8a
       2.480686e-28 1.1202533e-33 8.3920606e-33 -1.4422349e-32
0002d0 78 1b 81 96 ba a1 1b 8e 10 7e bd 83 2f e8 47 04
       -2.085841e-25 -1.9183094e-30 -1.1137364e-36 2.3498951e-36
0002e0 46 f6 bf 03 70 b9 79 8e 05 a6 8d 94 37 9f f2 91
       1.1282513e-36 -3.0780905e-30 -1.4302845e-26 -3.8278992e-28
0002f0 e3 97 97 0a a6 23 30 00 d0 ba e1 8b 28 1d 78 0a
       1.4597905e-32 4.420892e-39 -8.694793e-32 1.1946249e-32
000300 90 6c 04 87 39 d0 03 00 ec 0e 08 81 6e 02 0c 8e
       -9.96248e-35 3.50203e-40 -2.498996e-38 -1.7257502e-30
000310 db e6 88 0a ed a6 19 04 04 22 bd 81 bd 21 f6 80
       1.3183162e-32 1.8061712e-36 -6.9476445e-38 -2.2603635e-38
000320 09 69 c2 0a 38 99 cb 8d e4 ef 72 8b 52 e1 89 0a
       1.872103e-32 -1.2547727e-30 -4.6787978e-32 1.3277376e-32
000330 3b 11 7c 8b e0 b3 8d 8f 4d 67 49 0f 36 b9 0b 8d
       -4.8546397e-32 -1.3972959e-29 9.92996e-30 -4.305562e-31
000340 b9 86 fd 8d 85 90 86 8d 92 e0 64 95 65 07 08 13
       -1.5624762e-30 -8.293179e-31 -4.6221388e-26 1.716926e-27
000350 75 bb 38 0f af 92 32 0e ed 68 50 10 b2 61 bb 98
       9.108003e-30 2.201082e-30 4.11016e-29 -4.8437014e-24
000360 0a 92 5c 97 00 d9 89 10 85 3a d1 8d 70 24 f5 11
       -7.127016e-25 5.4371313e-29 -1.2894708e-30 3.867664e-28
000370 a4 50 5d 99 97 92 0d 93 c0 36 00 0e 63 02 41 12
       -1.14417175e-23 -1.7868976e-27 1.580358e-30 6.0903004e-28
000380 e0 5d 96 97 84 56 0d 00 73 ea 08 00 6c 36 05 80
       -9.71722e-25 1.224897e-39 8.18789e-40 -4.787e-40
000390 58 4b 09 80 a8 da 03 00 9e 0a 0f 00 11 6f 0a 80
       -8.53548e-40 3.53946e-40 1.381341e-39 -9.58198e-40
0003a0 fc b4 02 00 14 12 01 80 8a 44 01 00 e4 cb 41 80
       2.48596e-40 -9.8321e-41 1.16423e-40 -6.04245e-39
0003b0 67 91 0e 00 32 46 02 80 38 e2 05 80 dc 22 86 00
       1.337857e-39 -2.08852e-40 -5.4033e-40 1.2318462e-38
0003c0 f1 db 00 80 3a 4e 03 00 4e ae 2b 00 ed e6 0e 80
       -7.89e-41 3.03569e-40 4.011455e-39 -1.368538e-39
0003d0 88 29 04 00 d2 f3 09 00 b3 4d 06 00 68 a3 66 81
       3.8224e-40 9.13986e-40 5.78886e-40 -4.2361566e-38
0003e0 99 f8 01 80 db c9 7d 00 88 3b b2 0f ad a7 9a 0c
       -1.81016e-40 1.1551849e-38 1.7575086e-29 2.3828373e-31
0003f0 47 e3 bf 04 ee 43 ff 81 ef 5e 74 82 ec 68 d7 86
       4.5112605e-36 -9.376968e-38 -1.7953533e-37 -8.102818e-35

network.7.bias f4 [120]
000000 24 af a6 a1 be e1 26 b2 4e a8 dc bc b2 77 e6 bc
       -1.1294957e-18 -9.7137995e-09 -0.026935723 -0.028133247
000010 8f 45 9b 3d 21 cb 40 bd 12 78 73 9e d5 81 fd 3d
       0.075816266 -0.04706872 -1.2889143e-20 0.12378279
000020 51 8c 5e bd 29 3d 67 ac 99 c1 15 3e 1c df c6 3d
       -0.054333035 -3.2861025e-12 0.14624633 0.097105235
000030 6f e4 32 3c 5b 7a 1e b2 15 e2 a3 bc 54 7f fa bb
       0.010918721 -9.224631e-09 -0.020005265 -0.007644573
000040 6a 3a 03 be f6 a0 55 bc ff d6 89 b0 54 17 06 b1
       -0.12815252 -0.013038864 -1.0029167e-09 -1.9512827e-09
000050 8d 07 82 b7 1d cb 57 b4 6a 1d 44 bc cb 1e d8 9d
       -1.5500724e-05 -2.0097328e-07 -0.0119699035 -5.7206563e-21
000060 32 d4 18 3e ec 95 75 3e ed d0 0c be ce 84 3b 3e
       0.14924696 0.23982972 -0.13751574 0.1831238
000070 8b 7a 42 3e 01 93 37 bc d6 92 6b bd d9 ee af 3d
       0.18992059 -0.011204482 -0.05751308 0.085904785
000080 61 d3 a6 bc 87 9c 1f 3e 17 db 10 be 84 30 4f b7
       -0.020364465 0.15587054 -0.14146076 -1.2349457e-05
000090 db 4d c2 3d 04 5d 84 3d 7e 58 b6 b4 4f 8c b0 3d
       0.09487506 0.06463054 -3.3964528e-07 0.08620512
0000a0 52 be 5b 15 67 37 2b be 3a ef 83 3e eb 76 3f bc
       4.4376834e-26 -0.16720353 0.25768453 -0.011686067
0000b0 48 81 0a a9 47 8c 4a be 16 3a bd b9 13 70 15 3d
       -3.075429e-14 -0.19780074 -0.00036092167 0.036483835
0000c0 75 5f 77 ad 02 c2 30 be bb 78 ce bb a9 5e d5 2a
       -1.406152e-11 -0.17261508 -0.0063010133 3.7902084e-13
0000d0 e5 19 3e a4 3d 71 1b 97 12 9d 80 be 5a aa 78 aa
       -4.1221616e-17 -5.022613e-25 -0.25119835 -2.2085927e-13
0000e0 d3 45 9f bb 2e ab 96 3d b9 09 df 3c 78 ef f6 3d
       -0.0048606186 0.07356869 0.027226316 0.12057394
0000f0 71 68 1a ab 72 5c 09 a6 be 13 a4 b2 16 0d 66 3d
       -5.485673e-13 -4.765671e-16 -1.910109e-08 0.056164823
000100 c6 ae 67 bd 9e 8e 9d bc e7 69 09 3b d1 9b 5c 3e
       -0.05656316 -0.019233044 0.0020967664 0.21543814
000110 c1 5f 9a b4 e7 37 37 3e 02 7c a9 3c 3b 1e 87 3d
       -2.8754405e-07 0.17892419 0.020689014 0.06597563
000120 47 6d 03 b7 6f 98 07 3d 53 dc 65 3e bc 1a c3 bb
       -7.833652e-06 0.033104356 0.22447328 -0.0059541147
000130 03 75 b0 3d f9 50 86 bd 05 b9 b8 3c 76 ab 55 bc
       0.08616068 -0.06558413 0.022549162 -0.013041368
000140 e6 71 39 ae 67 e9 03 3d fb f6 9e b7 c9 be 02 bd
       -4.2165292e-11 0.03220501 -1.8950077e-05 -0.03192023
000150 f6 c1 cd a8 e3 ad 8e 3e 1b 96 37 ba 34 e8 d3 bc
       -2.2843689e-14 0.2786704 -0.00070032635 -0.025867559
000160 9b 2b dd bc bb 89 a4 3d 4f bb af 3d 7e 7a 58 bd
       -0.026998332 0.080340825 0.08580648 -0.052851193
000170 82 91 67 ab 0a 24 43 be 62 44 bb 3b d3 a6 11 bd
       -8.226962e-13 -0.19056717 0.005714939 -0.035559487
000180 62 b7 28 ac 90 fc 2d 3e 3a 3b 75 3e e1 0e e2 3d
       -2.3976034e-12 0.16990876 0.23948374 0.11037994
000190 3e f6 9f 3e a9 43 11 be 0d 75 03 3c 61 b7 ec 3d
       0.31242555 -0.14185967 0.008023513 0.11558414
0001a0 32 34 6a 3e 2e 48 d5 ac c4 aa 87 bc de 01 91 af
       0.22871473 -6.0618377e-12 -0.01656092 -2.6376673e-10
0001b0 fa 77 11 3e ff d8 f0 bc 97 b0 8f bd d8 c9 de 3d
       0.14205924 -0.029400347 -0.07016104 0.108783424
0001c0 e1 07 1c be a2 f9 eb bd 42 a5 d0 3d f4 b5 15 3e
       -0.1523738 -0.11522223 0.101877704 0.14620191
0001d0 cb c6 6c 3e fa af a6 ba 1b b5 90 3e 08 fa 97 a8
       0.23122708 -0.001271724 0.28263173 -1.6872801e-14

network.9.weight f4 [84, 120]
000000 5e 35 d7 37 e3 c5 56 39 10 f8 e8 bc a1 3d 11 3e
       2.5654848e-05 0.00020482349 -0.028438598 0.14183666
000010 fd 7b f3 3d 61 b6 9e 3d c3 6b 04 80 11 c6 6f bd
       0.11888883 0.0774963 -4.06e-40 -0.0585385
000020 f5 ef e5 3d 62 21 01 80 9f 03 d0 3c f0 fa 5d bb
       0.11227409 -1.03811e-40 0.025392352 -0.0033871494
000030 4a 2c 9d bd 9a f8 df b8 b9 38 0d 3d c2 e1 51 3d
       -0.07674463 -0.00010679774 0.034477923 0.05124069
000040 1b 53 e4 3d 10 b8 06 3d 50 3a 70 b2 3e 82 00 00
       0.111486636 0.03289038 -1.3983097e-08 4.6722e-41
000050 32 4d 70 b5 da 98 8f 39 2f bb 37 bd 4e 6d 00 9f
       -8.95193e-07 0.0002738897 -0.044856247 -2.719547e-20
000060 83 44 57 3d 00 db e8 bd 3b 9c d9 3d e6 71 87 bd
       0.052555572 -0.11369896 0.10625502 -0.06613521
000070 f2 fe 98 bc 79 db 0d 3d 92 62 db 3c 10 de ff 3c
       -0.018676255 0.034633134 0.0267804 0.031233817
000080 90 4c bc 3d ba 03 0e bc 38 a4 09 3e 43 5b 93 37
       0.09194291 -0.008667881 0.1344155 1.7566263e-05
000090 62 ac ae 3b 23 7e e4 bd 5b d0 a9 b9 96 4a e4 3d
       0.005330608 -0.11156871 -0.0003238943 0.11147039
0000a0 66 82 75 36 35 7d d7 bd 96 a2 c2 3d cb 7d a1 3c
       3.6583747e-06 -0.10521928 0.09503667 0.019713303
0000b0 3a 94 86 aa 1c 08 b9 3d 8d 8e 1a bc 6b 22 ad 3d
       -2.3906034e-13 0.0903475 -0.009433401 0.0845383
0000c0 2f f1 f4 39 e0 c6 34 3d 57 f0 ad 3b 7e 0b 1a 37
       0.00046719002 0.044134974 0.0053081918 9.181791e-06
0000d0 bc 83 0b 80 57 67 d8 af 66 48 03 3e 6a 5d 02 00
       -1.057448e-39 -3.9363598e-10 0.12820587 2.17182e-40
0000e0 3c 02 14 3d 40 bb e7 3d 46 6c 15 3e f2 b9 3e 3c
       0.036134943 0.11315012 0.14592084 0.0116410125
0000f0 2e 36 53 b1 ad 9a 09 80 6d 40 69 39 34 45 0c 3e
       -3.0735339e-09 -8.82007e-40 0.00022244612 0.13698274
000100 03 a3 52 3d 36 df 74 bc 68 1d 32 3c f6 12 14 3d
       0.05142499 -0.014945796 0.010871269 0.036150895
000110 44 5b 38 bc 2e 50 16 3d 02 52 21 3d ce 38 02 3e
       -0.011252228 0.03669756 0.03938485 0.12716982
000120 62 5d ee b9 e9 d4 b0 bd 88 81 ee 3c 84 4b 07 3d
       -0.00045464473 -0.086343594 0.0291145 0.033031
000130 2b df c5 bd 63 22 b5 bd 1d 82 80 ba b4 da cd 3d
       -0.096617065 -0.08844449 -0.0009804402 0.1005148
000140 64 ad 6a b9 f9 fb 9d 3d dd 30 48 bb d2 5b 92 3c
       -0.00022380572 0.077140756 -0.0030546703 0.017866049
000150 8a 1c a9 af 05 7d 80 3d bf 8c 31 bc 4a 65 ab bd
       -3.07612e-10 0.062738456 -0.010836779 -0.08368929
000160 2b 73 a7 bd a5 34 8b 3d db 5f 80 bd 9e d2 a1 bd
       -0.081762634 0.067971505 -0.06268283 -0.079015
000170 ff 4e 08 80 18 1a cf 3d 3e 6f 2f 3e 82 f4 8f bd
       -7.63022e-40 0.10112399 0.1713228 -0.07029058
000180 83 f2 c6 b6 c2 0c 98 bd 5e ee 28 3d 66 a7 e0 3d
       -5.929092e-06 -0.07424308 0.04124295 0.10969429
000190 24 a1 20 3e 4a 99 af bd 71 ea a6 3d ce a5 1a 3e
       0.1568647 -0.085741594 0.08150185 0.15102312
0001a0 a1 18 0a 3b 06 10 af b2 f2 c7 3e 3d bc cf 90 b2
       0.002107181 -2.0379968e-08 0.0465774 -1.6858273e-08
0001b0 27 31 be 3d 0a fe c5 3c de 8c d3 bd ca 80 c2 bd
       0.09286719 0.024168987 -0.10329603 -0.09497221
0001c0 30 a8 e0 bd f8 47 d7 bc 82 95 8f bd 3c 4a c6 3b
       -0.10969579 -0.026279435 -0.07010938 0.00605133
0001d0 b0 c5 c8 3c b2 08 5b 3c ca 93 86 3d 80 57 a9 36
       0.024508327 0.013368772 0.06571157 5.046779e-06
0001e0 f2 e7 1d 3a 2c 4d df 37 62 9f cd bb f6 22 0f bc
       0.0006023637 2.6619608e-05 -0.0062751034 -0.008736363
0001f0 d0 12 c4 3d 80 38 b3 bb b8 7c 04 00 54 ff 86 be
       0.09573901 -0.005469382 4.12083e-40 -0.26366675
000200 7a 9a ec bc 78 90 01 00 e9 41 e1 3c ab 9e c4 3b
       -0.028882254 1.43661e-40 0.027497249 0.00600036
000210 4a 5a 6b 3c f6 87 3f 32 94 36 b9 ba 8b d9 e2 3c
       0.014364788 1.1148577e-08 -0.0014130645 0.027691623
000220 86 39 97 bd c7 75 7b 3c 30 bb a0 29 c3 9c 0d 80
       -0.073840186 0.0153479045 7.137899e-14 -1.250097e-39
000230 fa 82 ad b5 03 58 63 3c 60 3c 2c bc e7 ec b2 1e
       -1.2927624e-06 0.013875964 -0.010512441 1.8944464e-20
000240 1c 75 1c 3e ff 3e 0f 3e fe 08 4d bd a0 6f 2c 3d
       0.15279049 0.13988875 -0.050057404 0.04209864
000250 c6 53 1b 3d 00 f4 b4 3b e3 de ad bd cc 78 71 3d
       0.03792169 0.005522251 -0.08489778 0.05895309
000260 45 51 24 bc 65 fa 78 3d 66 e1 e8 bc ea a7 37 b8
       -0.010029142 0.06078567 -0.02842779 -4.3786982e-05
000270 bb 37 30 3e a7 80 bc bd 6e e9 22 3b 37 a4 38 be
       0.1720876 -0.09204226 0.0024858373 -0.18031393
000280 eb a8 00 34 e3 9b a1 3d 9e 8c 05 3d f9 b4 0b 3c
       1.1982381e-07 0.07891061 0.032604806 0.008527034
000290 f7 11 d0 29 35 b7 34 be be f8 19 3b b2 cb af bc
       9.240172e-14 -0.17648013 0.002349421 -0.021459434
0002a0 44 eb 6d b6 18 2b c5 bd 8d c5 54 bb 48 f2 d1 b6
       -3.5452695e-06 -0.0962736 -0.0032466382 -6.2568906e-06
0002b0 5f ba 03 00 90 29 1c af 0d a7 a3 bc ed 35 0b 80
       3.42364e-40 -1.4202883e-10 -0.019977117 -1.029535e-39
0002c0 15 17 40 bb 64 40 e4 3d bc ea dc 3c 0d dd c5 bd
       -0.0029310633 0.11145094 0.026967399 -0.09661303
0002d0 2e d1 67 b5 24 ff 00 00 92 18 ea 35 6a 23 96 bd
       -8.63586e-07 9.1527e-41 1.744151e-06 -0.073309734
0002e0 73 f1 f7 3c 9a fd 2a 3c 6d 97 ae 3c c1 c0 44 3e
       0.0302665 0.01043644 0.02131244 0.19214155
0002f0 45 26 17 38 59 fc 8a 3d 65 3a 02 3e 9b de 36 be
       3.6036847e-05 0.06786413 0.12717588 -0.17858355
000300 e6 7d 3b 39 fc c6 4c 3d c8 49 b8 3d d4 2a 37 be
       0.0001788061 0.049994454 0.08998448 -0.17887431
000310 7d 47 44 bd 5a 37 16 be 72 60 b0 3d cd e5 81 3d
       -0.04791974 -0.14669552 0.086121455 0.06342659
000320 6a b4 b0 31 36 8d db bd aa d6 2c 3b 6d 8f 56 be
       5.142785e-09 -0.10720293 0.0026373067 -0.2095315
000330 b9 ff bd 25 e3 f2 3b 3b 0e 48 be bb 55 8a ca bd
       3.2959558e-16 0.0028678707 -0.0058069294 -0.09889666
000340 6b 90 a9 3d aa 74 af 3d 1d d6 75 bd 84 1d 5b 3d
       0.08279499 0.08567174 -0.060018647 0.053494945
000350 e4 46 01 00 69 d7 24 3d 4c a2 4e bd 75 9e 6b 3b
       1.17266e-40 0.040244494 -0.050447747 0.0035952602
000360 4a 6e 3a 2c 1b 21 4a 3a b3 1d 71 3b 09 25 5f 3d
       2.6493412e-12 0.00077106216 0.0036791384 0.05447868
000370 c6 82 0f be 03 a6 18 bd b1 63 be bc 01 05 74 3d
       -0.1401473 -0.037267696 -0.023240896 0.059575085
000380 a3 86 c0 3d 78 7e 61 b6 6a 95 6e 3c 62 0b d9 b7
       0.0940068 -3.3601227e-06 0.01456199 -2.5873716e-05
000390 82 00 18 bd 71 53 1e bc 73 13 b4 3d 00 61 51 3d
       -0.03710986 -0.009663449 0.08792772 0.051117897
0003a0 cc be 3c bb a0 2d f4 3a cf 1e 6a bd 46 7b c9 3d
       -0.0028800247 0.001862932 -0.057158288 0.09837966
0003b0 ca 98 84 3e 18 ef 58 bc 22 bb 77 3c 6c d1 db b7
       0.2589782 -0.013240598 0.0151202995 -2.6204354e-05
0003c0 35 56 de 37 ff 76 53 b8 8c 56 d1 bc 4d f1 f5 bd
       2.6504606e-05 -5.0417144e-05 -0.025553964 -0.12008915
0003d0 a6 38 2e 3d 89 4a 76 3d b2 cf 08 80 c3 cf 9d bc
       0.042534493 0.060129676 -8.09191e-40 -0.019264108
0003e0 08 14 10 3d 49 c5 06 80 42 f0 df bc d6 37 d9 bb
       0.035175353 -6.21786e-40 -0.027336244 -0.0066289706
0003f0 ba 34 a1 3d c7 6b ed b4 27 b1 3e 3d e5 0e 9a bc
       0.07871385 -4.4223108e-07 0.046555664 -0.01880593

network.9.bias f4 [84]
000000 16 d2 b3 3d 64 37 9e 3e 5e 41 f9 bd be f4 0d 3e
       0.08780305 0.30901635 -0.12170671 0.13862893
000010 4f 3f 86 3e d3 b9 33 3d 95 b2 87 b5 6b 14 04 3e
       0.26220176 0.043878388 -1.0110258e-06 0.12898414
000020 03 e6 a6 3e 39 8f 5d 3e 4c 05 05 b7 73 d8 b5 3b
       0.3259736 0.21636666 -7.928651e-06 0.0055494844
000030 1d 8e ae 3d 17 2f 29 3e 95 4e 1d bb 9d 04 ac b7
       0.085232 0.1652187 -0.0024003137 -2.0506146e-05
000040 17 3a 25 bc ed da 12 be 50 ba 7b 3e b1 52 8c b8
       -0.0100846505 -0.14341326 0.24582791 -6.691123e-05
000050 ef 0f e9 3c ae ca 01 b6 50 11 34 3e 0f e5 8c 3e
       0.02844998 -1.9340473e-06 0.17584729 0.27518508
000060 2b 6a 62 3d 98 03 43 3d ef 3a 26 3e 28 06 4a 3d
       0.05527703 0.04761085 0.16233419 0.049322277
000070 44 9d 41 3e 72 17 9b be 5c 80 0e 3e e2 90 4a 3d
       0.18907648 -0.30291325 0.13916153 0.049454577
000080 66 dd 7f b8 5d 8a 71 bd f1 65 78 3e 58 2b c5 bd
       -6.100293e-05 -0.058969844 0.24257638 -0.09627408
000090 16 4f 07 3a 54 4c 08 3d a7 c1 9f 3d 1e 04 a3 a2
       0.0005161626 0.033275917 0.07800608 -4.4185598e-18
0000a0 f6 4d f6 bd fe fa 7d 3b 94 bf cb b9 b2 eb 3a 3e
       -0.120265886 0.003875434 -0.00038861914 0.18253973
0000b0 70 a1 92 b8 ee 5e ef bd 87 f4 35 3e 07 03 05 3d
       -6.9918926e-05 -0.11688028 0.17769061 0.03247359
0000c0 04 c0 20 3d 99 65 64 ba e4 c2 4d be 48 94 b4 3b
       0.03924562 -0.0008712649 -0.20093876 0.0055108406
0000d0 ad 58 b6 bc 88 66 80 aa e2 4e 6d b3 90 23 80 bd
       -0.02225908 -2.2808513e-13 -5.5252606e-08 -0.06256783
0000e0 94 be 74 9a db d8 1a bd f2 96 db 3d 26 29 89 a2
       -5.0611965e-23 -0.037804466 0.1072215 -3.717749e-18
0000f0 fb 26 c6 3d 0c c5 32 9b 09 49 84 3e 26 9a 49 3e
       0.09675404 -1.4787484e-22 0.2583697 0.19687709
000100 2d 05 34 bd 8f e8 37 be dd b9 29 3d fe 48 73 ba
       -0.04395025 -0.17959808 0.04143702 -0.0009280591
000110 37 65 39 3c 22 f3 80 3e 8f de 46 18 19 99 6e 3e
       0.011315635 0.25185496 2.5703264e-24 0.2330059
000120 ab 5b dd 3d 32 98 97 3d c7 a1 42 3e 11 ba af bd
       0.108085 0.07402076 0.19007026 -0.08580411
000130 0e 85 1f 3d 51 e6 13 b6 91 6f 54 3e 45 e1 1e 3c
       0.03894525 -2.2038769e-06 0.20745684 0.009697263
000140 14 ed 43 bd 64 25 b5 b5 3b a2 0a 80 5d 20 09 3e
       -0.047833517 -1.3496433e-06 -9.76552e-40 0.13391252

network.11.weight f4 [10, 84]
000000 cf fb a1 bd fc d8 47 be c0 30 d1 3d 93 0c 2a bd
       -0.07909357 -0.19516367 0.102143764 -0.041515898
000010 42 bc 65 be c8 29 92 be 54 34 92 bb 03 e8 44 3e
       -0.22435096 -0.28547502 -0.0044618044 0.1922913
000020 fa e7 fb 3d 3e cf 2f 3e 13 a2 3a 37 cc 56 98 bd
       0.123001054 0.171689 1.11242e-05 -0.0743843
000030 af c7 8b bd 44 d7 b0 bd 1e f4 83 3b f1 43 cb 34
       -0.06825196 -0.08634809 0.004026904 3.786113e-07
000040 b5 bf b7 bc 85 e2 91 bd 22 0f 25 be 1c 82 c7 3b
       -0.02243028 -0.07123283 -0.16119054 0.0060885083
000050 1b 3d 45 be 44 96 4a 3b 7d 64 78 3d a7 70 8b b9
       -0.19261591 0.003091232 0.060642708 -0.00026596079
000060 20 90 d4 3c fc 55 0a 3e 42 6d 10 be 27 cf 25 3d
       0.02594763 0.13509363 -0.14104179 0.04048076
000070 57 f7 2e be 57 8f c9 3d 5f 5e 12 3c b4 3a 62 3d
       -0.1708654 0.09841793 0.008933633 0.055231765
000080 38 84 6d bb dd 8e 5c 3d 29 e5 c6 bd b7 cd d2 3d
       -0.0036242139 0.053847183 -0.097116776 0.10293143
000090 33 b0 fb b6 03 75 65 3e 19 b8 43 3e be fa 2e 06
       -7.500895e-06 0.22407918 0.19113196 3.290998e-35
0000a0 e7 01 79 bd 24 74 5f bd b1 7a 2b b8 f8 84 85 bd
       -0.06079283 -0.05455412 -4.0883842e-05 -0.065195024
0000b0 13 15 13 3b 8a b8 fb 3d 8f 46 3e be 81 16 2f be
       0.002244298 0.122910574 -0.18581603 -0.17098428
0000c0 b3 6a 62 be 04 60 60 3c 29 05 ed 3d 4c df 96 bb
       -0.22111015 0.013694767 0.1157325 -0.004604256
0000d0 d8 28 d2 bd c3 7d 00 80 65 8e 00 bc 21 16 7a 3b
       -0.102616966 -4.5115e-41 -0.0078464495 0.0038160163
0000e0 6b c1 7d 33 85 5c 67 3d 6b e1 c7 3d e1 c7 75 b2
       5.9082065e-08 0.056484718 0.09759792 -1.4306324e-08
0000f0 1c d2 8c bd f5 b5 02 00 63 34 09 3e a9 ee 84 bd
       -0.06876013 2.48945e-40 0.1339889 -0.06490833
000100 cd be ca bd 6e e1 79 bd 26 45 fa 3c b6 5f c7 3c
       -0.098996736 -0.061006002 0.03055055 0.02433763
000110 ca 06 16 be ed 46 80 bc 21 8e e4 a9 91 9f 3d 3d
       -0.14651027 -0.01565882 -1.01498894e-13 0.046294753
000120 f9 0e c2 bc 98 ce 02 3e 70 c1 9f bd e1 af 04 3e
       -0.02368878 0.12774122 -0.07800567 0.12957717
000130 a3 14 70 3d 1b 43 9b b6 61 1c 29 be c2 18 fa bd
       0.05861343 -4.627172e-06 -0.16514732 -0.122117534
000140 6d 6b b3 3d 97 3e e0 bb e4 7c 22 bb ad 0b 28 be
       0.08760724 -0.006843399 -0.002479368 -0.16410704
000150 5f ac b1 3b 2e d4 85 bd be 5f 44 3e 55 be 91 bd
       0.0054221596 -0.06534611 0.19177148 -0.07116381
000160 26 f3 5e bd 89 4f bf 3d 88 4b 74 3b c8 be fb bd
       -0.054431103 0.09341342 0.0037276465 -0.12292248
000170 6f e1 5f be f5 11 1c be 9e 6e 28 b6 62 05 53 3d
       -0.2186334 -0.15241225 -2.5098338e-06 0.051518805
000180 5a 2d ab bd 1e ff ec bd d2 62 3e 39 89 0a 6c b7
       -0.083582595 -0.11572097 0.00018156625 -1.4069149e-05
000190 5c 59 39 bc f4 e8 ee 3d b7 8a 40 be c9 db f9 bb
       -0.011312809 0.11665526 -0.18802916 -0.0076250774
0001a0 2c 31 bd 3c 27 be 82 3a 69 12 be bd cf 8e 72 be
       0.023094736 0.0009974883 -0.09280855 -0.2368729
0001b0 8a 6e 7a 3d 4e 96 82 bd bb be 07 be cd 3f f2 3d
       0.061140575 -0.063763246 -0.13256352 0.11828575
0001c0 ff fe 95 bd 22 22 f3 3d 7c cc 09 3c 7c 5d 26 3e
       -0.07324027 0.11871745 0.008410569 0.16246599
0001d0 ac 2d 20 bb cb 5c 21 be 1f a9 18 be 43 a2 12 3e
       -0.0024441285 -0.15758054 -0.14908265 0.1431971
0001e0 ff 19 63 b8 ef 93 f7 bd f0 72 b7 bd a5 5e e1 06
       -5.414523e-05 -0.12088763 -0.089574695 8.477466e-35
0001f0 6b d1 7c bd 40 dd 2a 3e c9 65 d7 b8 32 6e 67 3d
       -0.061723154 0.16685963 -0.00010270958 0.056501575
000200 40 40 2f 39 4c 49 0b bd 56 bf 96 bd 4e 03 4d be
       0.00016713236 -0.03400545 -0.07360713 -0.20020792
000210 17 c4 42 3d 23 e4 3b bd 98 17 bb bc 04 70 18 3d
       0.047550287 -0.045871865 -0.022838399 0.0372162
000220 42 69 e5 3d cf 57 02 80 a7 d1 13 bb a4 68 d0 3b
       0.11201717 -2.15171e-40 -0.0022555382 0.0063601304
000230 8a d9 6b 30 b0 a7 9e bb c9 d3 76 be 6e 1f 10 9e
       8.5801644e-10 -0.0048417673 -0.24104227 -7.629796e-21
000240 bb ee 40 be b2 4d 08 80 de 15 21 3d ea c0 09 be
       -0.18841068 -7.62556e-40 0.039327495 -0.13452497
000250 4f e9 cb 3c 3d 77 5a 3d cb ba a0 bd 7c d3 02 bc
       0.024891524 0.05333637 -0.07848128 -0.007984992
000260 59 c8 21 3e 56 34 87 be 3c 95 0b 00 c1 0a bb bd
       0.15799083 -0.26407117 1.063726e-39 -0.091329105
000270 05 9d bc 3d 92 ec 19 be 5c 77 0c 3c 84 b4 ef bd
       0.092096366 -0.1503165 0.008573379 -0.117043525
000280 b9 96 18 3e 79 34 c9 38 55 95 22 be d0 64 b0 3d
       0.14901246 9.594201e-05 -0.15877278 0.086129785
000290 a0 42 2e 3e f6 13 dc 3b 40 4a 95 3b e8 29 21 be
       0.17017603 0.0067162467 0.0045559704 -0.15738642
0002a0 b7 7d 82 be a1 b1 39 3d 3d 70 10 be 06 8c a9 bd
       -0.25486538 0.045335416 -0.14105316 -0.082786605
0002b0 5b 31 96 3d a6 9a 19 3d 7d 22 62 b9 80 53 a0 bd
       0.073336326 0.037501 -0.00021565887 -0.07828426
0002c0 3c 1e 06 3e bf 93 27 3e bf af d0 b6 97 d2 bd bd
       0.13097471 0.16364954 -6.2193426e-06 -0.092686825
0002d0 4b ad af bd 24 6e 73 3a e3 2e 24 3c 08 20 1d b4
       -0.08577975 0.00092861266 0.010020944 -1.4633417e-07
0002e0 90 0a d0 3c 5a 30 ea bb 3b e0 90 3d 0d b9 c9 bc
       0.025395662 -0.0071468772 0.070740186 -0.024624372
0002f0 0e 1d 40 bd 01 43 a1 3b f5 2a cf bd 3c 00 84 3e
       -0.04690271 0.0049213176 -0.10115615 0.2578143
000300 ff b6 fb bc 37 34 a2 bd bb 05 4a 3e 6a e0 d5 3d
       -0.030726908 -0.079201154 0.19728749 0.10443194
000310 69 fa 7b 3d c0 87 40 bc b6 95 f6 3d b5 49 ed bd
       0.061518107 -0.011751115 0.12040274 -0.11586324
000320 db 8c 21 3c b1 03 00 3d 61 08 e5 3d 19 b2 b2 3d
       0.009860243 0.03125352 0.11183239 0.08725376
000330 65 42 f0 37 b5 e3 1c be 16 56 e9 bd aa 45 3d 08
       2.8641147e-05 -0.15321238 -0.11393373 5.695701e-34
000340 f5 1a 2b 3d 33 12 10 be 70 28 04 39 2d b8 e5 bd
       0.041773755 -0.14069442 0.00012603565 -0.11216769
000350 f8 6d 55 37 e9 39 92 bd 9f 5f d7 bd ee e7 49 3d
       1.2721393e-05 -0.07139952 -0.10516285 0.04929345
000360 8c 72 ec 3c 0a 68 ca 3c 3c 53 80 3c 76 e6 1a be
       0.028863214 0.024707813 0.01566469 -0.15126976
000370 c4 e3 d7 3d 8d 10 0c 00 a9 19 8c bb 77 dc dd 3b
       0.1054149 1.107963e-39 -0.00427552 0.006770666
000380 29 4d 1a 22 3e dc 49 bc 55 5f 1a 3e ca 9b b5 8f
       2.091174e-18 -0.012320576 0.15075429 -1.7907986e-29
000390 00 38 1b 3e a7 97 07 80 ba 7f 07 3d 3a 5d 1a bc
       0.15158081 -6.97251e-40 0.033080794 -0.009421641
0003a0 44 8f bc 3c 2d ef d1 bd 70 5e da 3d 5b a6 d9 bc
       0.023017533 -0.10250697 0.10662544 -0.026568582
0003b0 b2 59 e2 bd 72 99 26 bc db b3 19 b4 af 5d d1 bd
       -0.11052264 -0.01016842 -1.4314666e-07 -0.10222947
0003c0 db 4e 06 be 84 21 38 3e 9c db 43 be 97 34 5d bc
       -0.13116018 0.17981535 -0.19126743 -0.013501308
0003d0 11 56 72 3d a9 52 31 3c 38 d0 5b be 88 fd 96 3d
       0.05916411 0.01082293 -0.21466148 0.07372576
0003e0 b9 7f fb bd 0b ab 80 bc 11 3c 62 ad bb 6d 21 3d
       -0.122802205 -0.01570656 -1.285995e-11 0.039411288
0003f0 e9 a1 1d bd 4d 56 81 bc cf 31 00 be af d0 3e be
       -0.038484488 -0.015788222 -0.12519 -0.18634294

network.11.bias f4 [10]
000000 db 43 20 be 72 5f 63 be b6 5b 76 3c cf ea f8 3d
       -0.15650885 -0.22204378 0.015036514 0.12154161
000010 c8 76 82 3e cd cc 8f bd be 8e 33 3c 06 3b ca bd
       0.25481248 -0.070214845 0.010959325 -0.09874539
000020 ad 7f aa 3d 68 0e 88 bd
       0.083251335 -0.06643373
